…
700 items) x: ImageList Image (3, 224, 224),Image (3, 224, 224),Image (3, 224, 224),Image (3, 224, 224),Image (3, 224, 224) y: CategoryList Innova Firebird,Innova Leopard,Discraft Buzzz,Innova Leopard,Discraft Buzzz Path: /home/jupyter/disc_classifier/disc_images; Valid: LabelList (300 items) x: ImageList Image (3, 224, 224),Image (3, 224, 224),Image (3, 224, 224),Image (3, 224, 224),Image (3, 224, 224) y: CategoryList Innova Firebird,Innova Firebird,Innova Firebird,Innova Leopard,Innova Firebird Path: /home/jupyter/disc_classifier/disc_images; Test: None, model=Sequential( (0): Sequential( (0): Conv2d(3, 64, kernel_size=(7, 7), stride=(2, 2), padding=(3, 3), bias=False) (1): BatchNorm2d(64, eps=1e-05, momentum=0.1, affine=True, track_running_stats=True) (2): ReLU(inplace) (3): MaxPool2d(kernel_size=3, stride=2, padding=1, dilation=1, ceil_mode=False) (4): Sequential( (0): Bottleneck( (conv1): Conv2d(64, 64, kernel_size=(1, 1), stride=(1, 1), bias=False) (bn1): BatchNorm2d(64, eps=1e-05, momentum=0.1, affine=True, track_running_stats=True) (conv2): Conv2d(64, 64, kernel_size=(3, 3), stride=(1, 1), padding=(1, 1), bias=False) (bn2): BatchNorm2d(64, eps=1e-05, momentum=0.1, affine=True, track_running_stats=True) (conv3): Conv2d(64, 256, kernel_size=(1, 1), stride=(1, 1), bias=False) (bn3): BatchNorm2d(256, eps=1e-05, momentum=0.1, affine=True, track_running_stats=True) (relu): ReLU(inplace) (downsample): Sequential( (0): Conv2d(64, 256, kernel_size=(1, 1), stride=(1, 1), bias=False) (1): BatchNorm2d(256, eps=1e-05, momentum=0.1, affine=True, track_running_stats=True) ) ) (1): Bottleneck( (conv1): Conv2d(256, 64, kernel_size=(1, 1), stride=(1, 1), bias=False) (bn1): BatchNorm2d(64, eps=1e-05, momentum=0.1, affine=True, track_running_stats=True) (conv2): Conv2d(64, 64, kernel_size=(3, 3), stride=(1, 1), padding=(1, 1), bias=False) (bn2): BatchNorm2d(64, eps=1e-05, momentum=0.1, affine=True, track_running_stats=True) (conv3): Conv2d(64, 256, kernel_size=(1, 1), stride=(1, 1), bias=False) (bn3): BatchNorm2d(256, eps=1e-05, momentum=0.1, affine=True, track_running_stats=True) (relu): ReLU(inplace) ) (2): Bottleneck( (conv1): Conv2d(256, 64, kernel_size=(1, 1), stride=(1, 1), bias=False) (bn1): BatchNorm2d(64, eps=1e-05, momentum=0.1, affine=True, track_running_stats=True) (conv2): Conv2d(64, 64, kernel_size=(3, 3), stride=(1, 1), padding=(1, 1), bias=False) (bn2): BatchNorm2d(64, eps=1e-05, momentum=0.1, affine=True, track_running_stats=True) (conv3): Conv2d(64, 256, kernel_size=(1, 1), stride=(1, 1), bias=False) (bn3): BatchNorm2d(256, eps=1e-05, momentum=0.1, affine=True, track_running_stats=True) (relu): ReLU(inplace) ) ) (5): Sequential( (0): Bottleneck( (conv1): Conv2d(256, 128, kernel_size=(1, 1), stride=(1, 1), bias=False) (bn1): BatchNorm2d(128, eps=1e-05, momentum=0.1, affine=True, track_running_stats=True) (conv2): Conv2d(128, 128, kernel_size=(3, 3), stride=(2, 2), padding=(1, 1), bias=False) (bn2): BatchNorm2d(128, eps=1e-05, momentum=0.1, affine=True, track_running_stats=True) (conv3): Conv2d(128, 512, kernel_size=(1, 1), stride=(1, 1), bias=False) (bn3): BatchNorm2d(512, eps=1e-05, momentum=0.1, affine=True, track_running_stats=True) (relu): ReLU(inplace) (downsample): Sequential( (0): Conv2d(256, 512, kernel_size=(1, 1), stride=(2, 2), bias=False) (1): BatchNorm2d(512, eps=1e-05, momentum=0.1, affine=True, track_running_stats=True) ) ) (1): Bottleneck( (conv1): Conv2d(512, 128, kernel_size=(1, 1), stride=(1, 1), bias=False) (bn1): BatchNorm2d(128, eps=1e-05, momentum=0.1, affine=True, track_running_stats=True) (conv2): Conv2d(128, 128, kernel_size=(3, 3), stride=(1, 1), padding=(1, 1), bias=False) (bn2): BatchNorm2d(128, eps=1e-05, momentum=0.1, affine=True, track_running_stats=True) (conv3): Conv2d(128, 512, kernel_size=(1, 1), stride=(1, 1), bias=False) (bn3): BatchNorm2d(512, eps=1e-05, momentum=0.1, affine=True, track_running_stats=True) (relu): ReLU(inplace) ) (2): Bottleneck( (conv1): Conv2d(512, 128, kernel_size=(1, 1), stride=(1, 1), bias=False) (bn1): BatchNorm2d(128, eps=1e-05, momentum=0.1, affine=True, track_running_stats=True) (conv2): Conv2d(128, 128, kernel_size=(3, 3), stride=(1, 1), padding=(1, 1), bias=False) (bn2): BatchNorm2d(128, eps=1e-05, momentum=0.1, affine=True, track_running_stats=True) (conv3): Conv2d(128, 512, kernel_size=(1, 1), stride=(1, 1), bias=False) (bn3): BatchNorm2d(512, eps=1e-05, momentum=0.1, affine=True, track_running_stats=True) (relu): ReLU(inplace) ) (3): Bottleneck( (conv1): Conv2d(512, 128, kernel_size=(1, 1), stride=(1, 1), bias=False) (bn1): BatchNorm2d(128, eps=1e-05, momentum=0.1, affine=True, track_running_stats=True) (conv2): Conv2d(128, 128, kernel_size=(3, 3), stride=(1, 1), padding=(1, 1), bias=False) (bn2): BatchNorm2d(128, eps=1e-05, momentum=0.1, affine=True, track_running_stats=True) (conv3): Conv2d(128, 512, kernel_size=(1, 1), stride=(1, 1), bias=False) (bn3): BatchNorm2d(512, eps=1e-05, momentum=0.1, affine=True, track_running_stats=True) (relu): ReLU(inplace) ) ) (6): Sequential( (0): Bottleneck( (conv1): Conv2d(512, 256, kernel_size=(1, 1), stride=(1, 1), bias=False) (bn1): BatchNorm2d(256, eps=1e-05, momentum=0.1, affine=True, track_running_stats=True) (conv2): Conv2d(256, 256, kernel_size=(3, 3), stride=(2, 2), padding=(1, 1), bias=False) (bn2): BatchNorm2d(256, eps=1e-05, momentum=0.1, affine=True, track_running_stats=True) (conv3): Conv2d(256, 1024, kernel_size=(1, 1), stride=(1, 1), bias=False) (bn3): BatchNorm2d(1024, eps=1e-05, momentum=0.1, affine=True, track_running_stats=True) (relu): ReLU(inplace) (downsample): Sequential( (0): Conv2d(512, 1024, kernel_size=(1, 1), stride=(2, 2), bias=False) (1): BatchNorm2d(1024, eps=1e-05, momentum=0.1, affine=True, track_running_stats=True) ) ) (1): Bottleneck( (conv1): Conv2d(1024, 256, kernel_size=(1, 1), stride=(1, 1), bias=False) (bn1): BatchNorm2d(256, eps=1e-05, momentum=0.1, affine=True, track_running_stats=True) (conv2): Conv2d(256, 256, kernel_size=(3, 3), stride=(1, 1), padding=(1, 1), bias=False) (bn2): BatchNorm2d(256, eps=1e-05, momentum=0.1, affine=True, track_running_stats=True) (conv3): Conv2d(256, 1024, kernel_size=(1, 1), stride=(1, 1), bias=False) (bn3): BatchNorm2d(1024, eps=1e-05, momentum=0.1, affine=True, track_running_stats=True) (relu): ReLU(inplace) ) (2): Bottleneck( (conv1): Conv2d(1024, 256, kernel_size=(1, 1), stride=(1, 1), bias=False) (bn1): BatchNorm2d(256, eps=1e-05, momentum=0.1, affine=True, track_running_stats=True) (conv2): Conv2d(256, 256, kernel_size=(3, 3), stride=(1, 1), padding=(1, 1), bias=False) (bn2): BatchNorm2d(256, eps=1e-05, momentum=0.1, affine=True, track_running_stats=True) (conv3): Conv2d(256, 1024, kernel_size=(1, 1), stride=(1, 1), bias=False) (bn3): BatchNorm2d(1024, eps=1e-05, momentum=0.1, affine=True, track_running_stats=True) (relu): ReLU(inplace) ) (3): Bottleneck( (conv1): Conv2d(1024, 256, kernel_size=(1, 1), stride=(1, 1), bias=False) (bn1): BatchNorm2d(256, eps=1e-05, momentum=0.1, affine=True, track_running_stats=True) (conv2): Conv2d(256, 256, kernel_size=(3, 3), stride=(1, 1), padding=(1, 1), bias=False) (bn2): BatchNorm2d(256, eps=1e-05, momentum=0.1, affine=True, track_running_stats=True) (conv3): Conv2d(256, 1024, kernel_size=(1, 1), stride=(1, 1), bias=False) (bn3): BatchNorm2d(1024, eps=1e-05, momentum=0.1, affine=True, track_running_stats=True) (relu): ReLU(inplace) ) (4): Bottleneck( (conv1): Conv2d(1024, 256, kernel_size=(1, 1), stride=(1, 1), bias=False) (bn1): BatchNorm2d(256, eps=1e-05, momentum=0.1, affine=True, track_running_stats=True) (conv2): Conv2d(256, 256, kernel_size=(3, 3), stride=(1, 1), padding=(1, 1), bias=False) (bn2): BatchNorm2d(256, eps=1e-05, momentum=0.1, affine=True, track_running_stats=True) (conv3): Conv2d(256, 1024, kernel_size=(1, 1), stride=(1, 1), bias=False) (bn3): BatchNorm2d(1024, eps=1e-05, momentum=0.1, affine=True, track_running_stats=True) (relu): ReLU(inplace) ) (5): Bottleneck( (conv1): Conv2d(1024, 256, kernel_size=(1, 1), stride=(1, 1), bias=False) (bn1): BatchNorm2d(256, eps=1e-05, momentum=0.1, affine=True, track_running_stats=True) (conv2): Conv2d(256, 256, kernel_size=(3, 3), stride=(1, 1), padding=(1, 1), bias=False) (bn2): BatchNorm2d(256, eps=1e-05, momentum=0.1, affine=True, track_running_stats=True) (conv3): Conv2d(256, 1024, kernel_size=(1, 1), stride=(1, 1), bias=False) (bn3): BatchNorm2d(1024, eps=1e-05, momentum=0.1, affine=True, track_running_stats=True) (relu): ReLU(inplace) ) ) (7): Sequential( (0): Bottleneck( (conv1): Conv2d(1024, 512, kernel_size=(1, 1), stride=(1, 1), bias=False) (bn1): BatchNorm2d(512, eps=1e-05, momentum=0.1, affine=True, track_running_stats=True) (conv2): Conv2d(512, 512, kernel_size=(3, 3), stride=(2, 2), padding=(1, 1), bias=False) (bn2): BatchNorm2d(512, eps=1e-05, momentum=0.1, affine=True, track_running_stats=True) (conv3): Conv2d(512, 2048, kernel_size=(1, 1), stride=(1, 1), bias=False) (bn3): BatchNorm2d(2048, eps=1e-05, momentum=0.1, affine=True, track_running_stats=True) (relu): ReLU(inplace) (downsample): Sequential( (0): Conv2d(1024, 2048, kernel_size=(1, 1), stride=(2, 2), bias=False) (1): BatchNorm2d(2048, eps=1e-05, momentum=0.1, affine=True, track_running_stats=True) ) ) (1): Bottleneck( (conv1): Conv2d(2048, 512, kernel_size=(1, 1), stride=(1, 1), bias=False) (bn1): BatchNorm2d(512, eps=1e-05, momentum=0.1, affine=True, track_running_stats=True) (conv2): Conv2d(512, 512, kernel_size=(3, 3), stride=(1, 1), padding=(1, 1), bias=False) (bn2): BatchNorm2d(512, eps=1e-05, momentum=0.1, affine=True, track_running_stats=True) (conv3): Conv2d(512, 2048, kernel_size=(1, 1), stride=(1, 1), bias=False) (bn3): BatchNorm2d(2048, eps=1e-05, momentum=0.1, affine=True, track_running_stats=True) (relu): ReLU(inplace) ) (2): Bottleneck( (conv1): Conv2d(2048, 512, kernel_size=(1, 1), stride=(1, 1), bias=False) (bn1): BatchNorm2d(512, eps=1e-05, momentum=0.1, affine=True, track_running_stats=True) (conv2): Conv2d(512, 512, kernel_size=(3, 3), stride=(1, 1), padding=(1, 1), bias=False) (bn2): BatchNorm2d(512, eps=1e-05, momentum=0.1, affine=True, track_running_stats=True) (conv3): Conv2d(512, 2048, kernel_size=(1, 1), stride=(1, 1), bias=False) (bn3): BatchNorm2d(2048, eps=1e-05, momentum=0.1, affine=True, track_running_stats=True) (relu): ReLU(inplace) ) ) ) (1): Sequential( (0): AdaptiveConcatPool2d( (ap): AdaptiveAvgPool2d(output_size=1) (mp): AdaptiveMaxPool2d(output_size=1) ) (1): Flatten() (2): BatchNorm1d(4096, eps=1e-05, momentum=0.1, affine=True, track_running_stats=True) (3): Dropout(p=0.25) (4): Linear(in_features=4096, out_features=512, bias=True) (5): ReLU(inplace) (6): BatchNorm1d(512, eps=1e-05, momentum=0.1, affine=True, track_running_stats=True) (7): Dropout(p=0.5) (8): Linear(in_features=512, out_features=3, bias=True) ) ), opt_func=functools.partial(&lt;class &#39;torch.optim.adam.Adam&#39;&gt;, betas=(0.9, 0.99)), loss_func=FlattenedLoss of CrossEntropyLoss(), metrics=[&lt;function error_rate at 0x7f8c29900d90&gt;], true_wd=True, bn_wd=True, wd=0.01, train_bn=True, path=PosixPath(&#39;/home/jupyter/disc_classifier/disc_images&#39;), model_dir=&#39;models&#39;, callback_fns=[functools.partial(&lt;class &#39;fastai.basic_train.Recorder&#39;&gt;, add_time=True)], callbacks=[], layer_groups=[Sequential( (0): Conv2d(3, 64, kernel_size=(7, 7), stride=(2, 2), padding=(3, 3), bias=False) (1): BatchNorm2d(64, eps=1e-05, momentum=0.1, affine=True, track_running_stats=True) (2): ReLU(inplace) (3): MaxPool2d(kernel_size=3, stride=2, padding=1, dilation=1, ceil_mode=False) (4): Conv2d(64, 64, kernel_size=(1, 1), stride=(1, 1), bias=False) (5): BatchNorm2d(64, eps=1e-05, momentum=0.1, affine=True, track_running_stats=True) (6): Conv2d(64, 64, kernel_size=(3, 3), stride=(1, 1), padding=(1, 1), bias=False) (7): BatchNorm2d(64, eps=1e-05, momentum=0.1, affine=True, track_running_stats=True) (8): Conv2d(64, 256, kernel_size=(1, 1), stride=(1, 1), bias=False) (9): BatchNorm2d(256, eps=1e-05, momentum=0.1, affine=True, track_running_stats=True) (10): ReLU(inplace) (11): Conv2d(64, 256, kernel_size=(1, 1), stride=(1, 1), bias=False) (12): BatchNorm2d(256, eps=1e-05, momentum=0.1, affine=True, track_running_stats=True) (13): Conv2d(256, 64, kernel_size=(1, 1), stride=(1, 1), bias=False) (14): BatchNorm2d(64, eps=1e-05, momentum=0.1, affine=True, track_running_stats=True) (15): Conv2d(64, 64, kernel_size=(3, 3), stride=(1, 1), padding=(1, 1), bias=False) (16): BatchNorm2d(64, eps=1e-05, momentum=0.1, affine=True, track_running_stats=True) (17): Conv2d(64, 256, kernel_size=(1, 1), stride=(1, 1), bias=False) (18): BatchNorm2d(256, eps=1e-05, momentum=0.1, affine=True, track_running_stats=True) (19): ReLU(inplace) (20): Conv2d(256, 64, kernel_size=(1, 1), stride=(1, 1), bias=False) (21): BatchNorm2d(64, eps=1e-05, momentum=0.1, affine=True, track_running_stats=True) (22): Conv2d(64, 64, kernel_size=(3, 3), stride=(1, 1), padding=(1, 1), bias=False) (23): BatchNorm2d(64, eps=1e-05, momentum=0.1, affine=True, track_running_stats=True) (24): Conv2d(64, 256, kernel_size=(1, 1), stride=(1, 1), bias=False) (25): BatchNorm2d(256, eps=1e-05, momentum=0.1, affine=True, track_running_stats=True) (26): ReLU(inplace) (27): Conv2d(256, 128, kernel_size=(1, 1), stride=(1, 1), bias=False) (28): BatchNorm2d(128, eps=1e-05, momentum=0.1, affine=True, track_running_stats=True) (29): Conv2d(128, 128, kernel_size=(3, 3), stride=(2, 2), padding=(1, 1), bias=False) (30): BatchNorm2d(128, eps=1e-05, momentum=0.1, affine=True, track_running_stats=True) (31): Conv2d(128, 512, kernel_size=(1, 1), stride=(1, 1), bias=False) (32): BatchNorm2d(512, eps=1e-05, momentum=0.1, affine=True, track_running_stats=True) (33): ReLU(inplace) (34): Conv2d(256, 512, kernel_size=(1, 1), stride=(2, 2), bias=False) (35): BatchNorm2d(512, eps=1e-05, momentum=0.1, affine=True, track_running_stats=True) (36): Conv2d(512, 128, kernel_size=(1, 1), stride=(1, 1), bias=False) (37): BatchNorm2d(128, eps=1e-05, momentum=0.1, affine=True, track_running_stats=True) (38): Conv2d(128, 128, kernel_size=(3, 3), stride=(1, 1), padding=(1, 1), bias=False) (39): BatchNorm2d(128, eps=1e-05, momentum=0.1, affine=True, track_running_stats=True) (40): Conv2d(128, 512, kernel_size=(1, 1), stride=(1, 1), bias=False) (41): BatchNorm2d(512, eps=1e-05, momentum=0.1, affine=True, track_running_stats=True) (42): ReLU(inplace) (43): Conv2d(512, 128, kernel_size=(1, 1), stride=(1, 1), bias=False) (44): BatchNorm2d(128, eps=1e-05, momentum=0.1, affine=True, track_running_stats=True) (45): Conv2d(128, 128, kernel_size=(3, 3), stride=(1, 1), padding=(1, 1), bias=False) (46): BatchNorm2d(128, eps=1e-05, momentum=0.1, affine=True, track_running_stats=True) (47): Conv2d(128, 512, kernel_size=(1, 1), stride=(1, 1), bias=False) (48): BatchNorm2d(512, eps=1e-05, momentum=0.1, affine=True, track_running_stats=True) (49): ReLU(inplace) (50): Conv2d(512, 128, kernel_size=(1, 1), stride=(1, 1), bias=False) (51): BatchNorm2d(128, eps=1e-05, momentum=0.1, affine=True, track_running_stats=True) (52): Conv2d(128, 128, kernel_size=(3, 3), stride=(1, 1), padding=(1, 1), bias=False) (53): BatchNorm2d(128, eps=1e-05, momentum=0.1, affine=True, track_running_stats=True) (54): Conv2d(128, 512, kernel_size=(1, 1), stride=(1, 1), bias=False) (55): BatchNorm2d(512, eps=1e-05, momentum=0.1, affine=True, track_running_stats=True) (56): ReLU(inplace) ), Sequential( (0): Conv2d(512, 256, kernel_size=(1, 1), stride=(1, 1), bias=False) (1): BatchNorm2d(256, eps=1e-05, momentum=0.1, affine=True, track_running_stats=True) (2): Conv2d(256, 256, kernel_size=(3, 3), stride=(2, 2), padding=(1, 1), bias=False) (3): BatchNorm2d(256, eps=1e-05, momentum=0.1, affine=True, track_running_stats=True) (4): Conv2d(256, 1024, kernel_size=(1, 1), stride=(1, 1), bias=False) (5): BatchNorm2d(1024, eps=1e-05, momentum=0.1, affine=True, track_running_stats=True) (6): ReLU(inplace) (7): Conv2d(512, 1024, kernel_size=(1, 1), stride=(2, 2), bias=False) (8): BatchNorm2d(1024, eps=1e-05, momentum=0.1, affine=True, track_running_stats=True) (9): Conv2d(1024, 256, kernel_size=(1, 1), stride=(1, 1), bias=False) (10): BatchNorm2d(256, eps=1e-05, momentum=0.1, affine=True, track_running_stats=True) (11): Conv2d(256, 256, kernel_size=(3, 3), stride=(1, 1), padding=(1, 1), bias=False) (12): BatchNorm2d(256, eps=1e-05, momentum=0.1, affine=True, track_running_stats=True) (13): Conv2d(256, 1024, kernel_size=(1, 1), stride=(1, 1), bias=False) (14): BatchNorm2d(1024, eps=1e-05, momentum=0.1, affine=True, track_running_stats=True) (15): ReLU(inplace) (16): Conv2d(1024, 256, kernel_size=(1, 1), stride=(1, 1), bias=False) (17): BatchNorm2d(256, eps=1e-05, momentum=0.1, affine=True, track_running_stats=True) (18): Conv2d(256, 256, kernel_size=(3, 3), stride=(1, 1), padding=(1, 1), bias=False) (19): BatchNorm2d(256, eps=1e-05, momentum=0.1, affine=True, track_running_stats=True) (20): Conv2d(256, 1024, kernel_size=(1, 1), stride=(1, 1), bias=False) (21): BatchNorm2d(1024, eps=1e-05, momentum=0.1, affine=True, track_running_stats=True) (22): ReLU(inplace) (23): Conv2d(1024, 256, kernel_size=(1, 1), stride=(1, 1), bias=False) (24): BatchNorm2d(256, eps=1e-05, momentum=0.1, affine=True, track_running_stats=True) (25): Conv2d(256, 256, kernel_size=(3, 3), stride=(1, 1), padding=(1, 1), bias=False) (26): BatchNorm2d(256, eps=1e-05, momentum=0.1, affine=True, track_running_stats=True) (27): Conv2d(256, 1024, kernel_size=(1, 1), stride=(1, 1), bias=False) (28): BatchNorm2d(1024, eps=1e-05, momentum=0.1, affine=True, track_running_stats=True) (29): ReLU(inplace) (30): Conv2d(1024, 256, kernel_size=(1, 1), stride=(1, 1), bias=False) (31): BatchNorm2d(256, eps=1e-05, momentum=0.1, affine=True, track_running_stats=True) (32): Conv2d(256, 256, kernel_size=(3, 3), stride=(1, 1), padding=(1, 1), bias=False) (33): BatchNorm2d(256, eps=1e-05, momentum=0.1, affine=True, track_running_stats=True) (34): Conv2d(256, 1024, kernel_size=(1, 1), stride=(1, 1), bias=False) (35): BatchNorm2d(1024, eps=1e-05, momentum=0.1, affine=True, track_running_stats=True) (36): ReLU(inplace) (37): Conv2d(1024, 256, kernel_size=(1, 1), stride=(1, 1), bias=False) (38): BatchNorm2d(256, eps=1e-05, momentum=0.1, affine=True, track_running_stats=True) (39): Conv2d(256, 256, kernel_size=(3, 3), stride=(1, 1), padding=(1, 1), bias=False) (40): BatchNorm2d(256, eps=1e-05, momentum=0.1, affine=True, track_running_stats=True) (41): Conv2d(256, 1024, kernel_size=(1, 1), stride=(1, 1), bias=False) (42): BatchNorm2d(1024, eps=1e-05, momentum=0.1, affine=True, track_running_stats=True) (43): ReLU(inplace) (44): Conv2d(1024, 512, kernel_size=(1, 1), stride=(1, 1), bias=False) (45): BatchNorm2d(512, eps=1e-05, momentum=0.1, affine=True, track_running_stats=True) (46): Conv2d(512, 512, kernel_size=(3, 3), stride=(2, 2), padding=(1, 1), bias=False) (47): BatchNorm2d(512, eps=1e-05, momentum=0.1, affine=True, track_running_stats=True) (48): Conv2d(512, 2048, kernel_size=(1, 1), stride=(1, 1), bias=False) (49): BatchNorm2d(2048, eps=1e-05, momentum=0.1, affine=True, track_running_stats=True) (50): ReLU(inplace) (51): Conv2d(1024, 2048, kernel_size=(1, 1), stride=(2, 2), bias=False) (52): BatchNorm2d(2048, eps=1e-05, momentum=0.1, affine=True, track_running_stats=True) (53): Conv2d(2048, 512, kernel_size=(1, 1), stride=(1, 1), bias=False) (54): BatchNorm2d(512, eps=1e-05, momentum=0.1, affine=True, track_running_stats=True) (55): Conv2d(512, 512, kernel_size=(3, 3), stride=(1, 1), padding=(1, 1), bias=False) (56): BatchNorm2d(512, eps=1e-05, momentum=0.1, affine=True, track_running_stats=True) (57): Conv2d(512, 2048, kernel_size=(1, 1), stride=(1, 1), bias=False) (58): BatchNorm2d(2048, eps=1e-05, momentum=0.1, affine=True, track_running_stats=True) (59): ReLU(inplace) (60): Conv2d(2048, 512, kernel_size=(1, 1), stride=(1, 1), bias=False) (61): BatchNorm2d(512, eps=1e-05, momentum=0.1, affine=True, track_running_stats=True) (62): Conv2d(512, 512, kernel_size=(3, 3), stride=(1, 1), padding=(1, 1), bias=False) (63): BatchNorm2d(512, eps=1e-05, momentum=0.1, affine=True, track_running_stats=True) (64): Conv2d(512, 2048, kernel_size=(1, 1), stride=(1, 1), bias=False) (65): BatchNorm2d(2048, eps=1e-05, momentum=0.1, affine=True, track_running_stats=True) (66): ReLU(inplace) ), Sequential( (0): AdaptiveAvgPool2d(output_size=1) (1): AdaptiveMaxPool2d(output_size=1) (2): Flatten() (3): BatchNorm1d(4096, eps=1e-05, momentum=0.1, affine=True, track_running_stats=True) (4): Dropout(p=0.25) (5): Linear(in_features=4096, out_features=512, bias=True) (6): ReLU(inplace) (7): BatchNorm1d(512, eps=1e-05, momentum=0.1, affine=True, track_running_stats=True) (8): Dropout(p=0.5) (9): Linear(in_features=512, out_features=3, bias=True) )], add_time=True) . learn.lr_find() learn.recorder.plot() . LR Finder is complete, type {learner_name}.recorder.plot() to see the graph. . learn.fit_one_cycle(4, max_lr=3*1e-3) . Total time: 03:27 epoch train_loss valid_loss error_rate time . 0 0.801391 0.698489 0.223333 00:53 . 1 0.523101 0.402900 0.143333 00:51 . 2 0.348445 0.353320 0.160000 00:51 . 3
…
 (2700 items) x: ImageList Image (3, 224, 224),Image (3, 224, 224),Image (3, 224, 224),Image (3, 224, 224),Image (3, 224, 224) y: CategoryList Innova Leopard,Innova Firebird,Discraft Buzzz,Innova Leopard,Discraft Buzzz Path: /home/jupyter/disc_classifier/disc_images; Valid: LabelList (300 items) x: ImageList Image (3, 224, 224),Image (3, 224, 224),Image (3, 224, 224),Image (3, 224, 224),Image (3, 224, 224) y: CategoryList Innova Leopard,Innova Firebird,Discraft Buzzz,Discraft Buzzz,Discraft Buzzz Path: /home/jupyter/disc_classifier/disc_images; Test: None, model=Sequential( (0): Sequential( (0): Conv2d(3, 64, kernel_size=(7, 7), stride=(2, 2), padding=(3, 3), bias=False) (1): BatchNorm2d(64, eps=1e-05, momentum=0.1, affine=True, track_running_stats=True) (2): ReLU(inplace) (3): MaxPool2d(kernel_size=3, stride=2, padding=1, dilation=1, ceil_mode=False) (4): Sequential( (0): Bottleneck( (conv1): Conv2d(64, 64, kernel_size=(1, 1), stride=(1, 1), bias=False) (bn1): BatchNorm2d(64, eps=1e-05, momentum=0.1, affine=True, track_running_stats=True) (conv2): Conv2d(64, 64, kernel_size=(3, 3), stride=(1, 1), padding=(1, 1), bias=False) (bn2): BatchNorm2d(64, eps=1e-05, momentum=0.1, affine=True, track_running_stats=True) (conv3): Conv2d(64, 256, kernel_size=(1, 1), stride=(1, 1), bias=False) (bn3): BatchNorm2d(256, eps=1e-05, momentum=0.1, affine=True, track_running_stats=True) (relu): ReLU(inplace) (downsample): Sequential( (0): Conv2d(64, 256, kernel_size=(1, 1), stride=(1, 1), bias=False) (1): BatchNorm2d(256, eps=1e-05, momentum=0.1, affine=True, track_running_stats=True) ) ) (1): Bottleneck( (conv1): Conv2d(256, 64, kernel_size=(1, 1), stride=(1, 1), bias=False) (bn1): BatchNorm2d(64, eps=1e-05, momentum=0.1, affine=True, track_running_stats=True) (conv2): Conv2d(64, 64, kernel_size=(3, 3), stride=(1, 1), padding=(1, 1), bias=False) (bn2): BatchNorm2d(64, eps=1e-05, momentum=0.1, affine=True, track_running_stats=True) (conv3): Conv2d(64, 256, kernel_size=(1, 1), stride=(1, 1), bias=False) (bn3): BatchNorm2d(256, eps=1e-05, momentum=0.1, affine=True, track_running_stats=True) (relu): ReLU(inplace) ) (2): Bottleneck( (conv1): Conv2d(256, 64, kernel_size=(1, 1), stride=(1, 1), bias=False) (bn1): BatchNorm2d(64, eps=1e-05, momentum=0.1, affine=True, track_running_stats=True) (conv2): Conv2d(64, 64, kernel_size=(3, 3), stride=(1, 1), padding=(1, 1), bias=False) (bn2): BatchNorm2d(64, eps=1e-05, momentum=0.1, affine=True, track_running_stats=True) (conv3): Conv2d(64, 256, kernel_size=(1, 1), stride=(1, 1), bias=False) (bn3): BatchNorm2d(256, eps=1e-05, momentum=0.1, affine=True, track_running_stats=True) (relu): ReLU(inplace) ) ) (5): Sequential( (0): Bottleneck( (conv1): Conv2d(256, 128, kernel_size=(1, 1), stride=(1, 1), bias=False) (bn1): BatchNorm2d(128, eps=1e-05, momentum=0.1, affine=True, track_running_stats=True) (conv2): Conv2d(128, 128, kernel_size=(3, 3), stride=(2, 2), padding=(1, 1), bias=False) (bn2): BatchNorm2d(128, eps=1e-05, momentum=0.1, affine=True, track_running_stats=True) (conv3): Conv2d(128, 512, kernel_size=(1, 1), stride=(1, 1), bias=False) (bn3): BatchNorm2d(512, eps=1e-05, momentum=0.1, affine=True, track_running_stats=True) (relu): ReLU(inplace) (downsample): Sequential( (0): Conv2d(256, 512, kernel_size=(1, 1), stride=(2, 2), bias=False) (1): BatchNorm2d(512, eps=1e-05, momentum=0.1, affine=True, track_running_stats=True) ) ) (1): Bottleneck( (conv1): Conv2d(512, 128, kernel_size=(1, 1), stride=(1, 1), bias=False) (bn1): BatchNorm2d(128, eps=1e-05, momentum=0.1, affine=True, track_running_stats=True) (conv2): Conv2d(128, 128, kernel_size=(3, 3), stride=(1, 1), padding=(1, 1), bias=False) (bn2): BatchNorm2d(128, eps=1e-05, momentum=0.1, affine=True, track_running_stats=True) (conv3): Conv2d(128, 512, kernel_size=(1, 1), stride=(1, 1), bias=False) (bn3): BatchNorm2d(512, eps=1e-05, momentum=0.1, affine=True, track_running_stats=True) (relu): ReLU(inplace) ) (2): Bottleneck( (conv1): Conv2d(512, 128, kernel_size=(1, 1), stride=(1, 1), bias=False) (bn1): BatchNorm2d(128, eps=1e-05, momentum=0.1, affine=True, track_running_stats=True) (conv2): Conv2d(128, 128, kernel_size=(3, 3), stride=(1, 1), padding=(1, 1), bias=False) (bn2): BatchNorm2d(128, eps=1e-05, momentum=0.1, affine=True, track_running_stats=True) (conv3): Conv2d(128, 512, kernel_size=(1, 1), stride=(1, 1), bias=False) (bn3): BatchNorm2d(512, eps=1e-05, momentum=0.1, affine=True, track_running_stats=True) (relu): ReLU(inplace) ) (3): Bottleneck( (conv1): Conv2d(512, 128, kernel_size=(1, 1), stride=(1, 1), bias=False) (bn1): BatchNorm2d(128, eps=1e-05, momentum=0.1, affine=True, track_running_stats=True) (conv2): Conv2d(128, 128, kernel_size=(3, 3), stride=(1, 1), padding=(1, 1), bias=False) (bn2): BatchNorm2d(128, eps=1e-05, momentum=0.1, affine=True, track_running_stats=True) (conv3): Conv2d(128, 512, kernel_size=(1, 1), stride=(1, 1), bias=False) (bn3): BatchNorm2d(512, eps=1e-05, momentum=0.1, affine=True, track_running_stats=True) (relu): ReLU(inplace) ) ) (6): Sequential( (0): Bottleneck( (conv1): Conv2d(512, 256, kernel_size=(1, 1), stride=(1, 1), bias=False) (bn1): BatchNorm2d(256, eps=1e-05, momentum=0.1, affine=True, track_running_stats=True) (conv2): Conv2d(256, 256, kernel_size=(3, 3), stride=(2, 2), padding=(1, 1), bias=False) (bn2): BatchNorm2d(256, eps=1e-05, momentum=0.1, affine=True, track_running_stats=True) (conv3): Conv2d(256, 1024, kernel_size=(1, 1), stride=(1, 1), bias=False) (bn3): BatchNorm2d(1024, eps=1e-05, momentum=0.1, affine=True, track_running_stats=True) (relu): ReLU(inplace) (downsample): Sequential( (0): Conv2d(512, 1024, kernel_size=(1, 1), stride=(2, 2), bias=False) (1): BatchNorm2d(1024, eps=1e-05, momentum=0.1, affine=True, track_running_stats=True) ) ) (1): Bottleneck( (conv1): Conv2d(1024, 256, kernel_size=(1, 1), stride=(1, 1), bias=False) (bn1): BatchNorm2d(256, eps=1e-05, momentum=0.1, affine=True, track_running_stats=True) (conv2): Conv2d(256, 256, kernel_size=(3, 3), stride=(1, 1), padding=(1, 1), bias=False) (bn2): BatchNorm2d(256, eps=1e-05, momentum=0.1, affine=True, track_running_stats=True) (conv3): Conv2d(256, 1024, kernel_size=(1, 1), stride=(1, 1), bias=False) (bn3): BatchNorm2d(1024, eps=1e-05, momentum=0.1, affine=True, track_running_stats=True) (relu): ReLU(inplace) ) (2): Bottleneck( (conv1): Conv2d(1024, 256, kernel_size=(1, 1), stride=(1, 1), bias=False) (bn1): BatchNorm2d(256, eps=1e-05, momentum=0.1, affine=True, track_running_stats=True) (conv2): Conv2d(256, 256, kernel_size=(3, 3), stride=(1, 1), padding=(1, 1), bias=False) (bn2): BatchNorm2d(256, eps=1e-05, momentum=0.1, affine=True, track_running_stats=True) (conv3): Conv2d(256, 1024, kernel_size=(1, 1), stride=(1, 1), bias=False) (bn3): BatchNorm2d(1024, eps=1e-05, momentum=0.1, affine=True, track_running_stats=True) (relu): ReLU(inplace) ) (3): Bottleneck( (conv1): Conv2d(1024, 256, kernel_size=(1, 1), stride=(1, 1), bias=False) (bn1): BatchNorm2d(256, eps=1e-05, momentum=0.1, affine=True, track_running_stats=True) (conv2): Conv2d(256, 256, kernel_size=(3, 3), stride=(1, 1), padding=(1, 1), bias=False) (bn2): BatchNorm2d(256, eps=1e-05, momentum=0.1, affine=True, track_running_stats=True) (conv3): Conv2d(256, 1024, kernel_size=(1, 1), stride=(1, 1), bias=False) (bn3): BatchNorm2d(1024, eps=1e-05, momentum=0.1, affine=True, track_running_stats=True) (relu): ReLU(inplace) ) (4): Bottleneck( (conv1): Conv2d(1024, 256, kernel_size=(1, 1), stride=(1, 1), bias=False) (bn1): BatchNorm2d(256, eps=1e-05, momentum=0.1, affine=True, track_running_stats=True) (conv2): Conv2d(256, 256, kernel_size=(3, 3), stride=(1, 1), padding=(1, 1), bias=False) (bn2): BatchNorm2d(256, eps=1e-05, momentum=0.1, affine=True, track_running_stats=True) (conv3): Conv2d(256, 1024, kernel_size=(1, 1), stride=(1, 1), bias=False) (bn3): BatchNorm2d(1024, eps=1e-05, momentum=0.1, affine=True, track_running_stats=True) (relu): ReLU(inplace) ) (5): Bottleneck( (conv1): Conv2d(1024, 256, kernel_size=(1, 1), stride=(1, 1), bias=False) (bn1): BatchNorm2d(256, eps=1e-05, momentum=0.1, affine=True, track_running_stats=True) (conv2): Conv2d(256, 256, kernel_size=(3, 3), stride=(1, 1), padding=(1, 1), bias=False) (bn2): BatchNorm2d(256, eps=1e-05, momentum=0.1, affine=True, track_running_stats=True) (conv3): Conv2d(256, 1024, kernel_size=(1, 1), stride=(1, 1), bias=False) (bn3): BatchNorm2d(1024, eps=1e-05, momentum=0.1, affine=True, track_running_stats=True) (relu): ReLU(inplace) ) ) (7): Sequential( (0): Bottleneck( (conv1): Conv2d(1024, 512, kernel_size=(1, 1), stride=(1, 1), bias=False) (bn1): BatchNorm2d(512, eps=1e-05, momentum=0.1, affine=True, track_running_stats=True) (conv2): Conv2d(512, 512, kernel_size=(3, 3), stride=(2, 2), padding=(1, 1), bias=False) (bn2): BatchNorm2d(512, eps=1e-05, momentum=0.1, affine=True, track_running_stats=True) (conv3): Conv2d(512, 2048, kernel_size=(1, 1), stride=(1, 1), bias=False) (bn3): BatchNorm2d(2048, eps=1e-05, momentum=0.1, affine=True, track_running_stats=True) (relu): ReLU(inplace) (downsample): Sequential( (0): Conv2d(1024, 2048, kernel_size=(1, 1), stride=(2, 2), bias=False) (1): BatchNorm2d(2048, eps=1e-05, momentum=0.1, affine=True, track_running_stats=True) ) ) (1): Bottleneck( (conv1): Conv2d(2048, 512, kernel_size=(1, 1), stride=(1, 1), bias=False) (bn1): BatchNorm2d(512, eps=1e-05, momentum=0.1, affine=True, track_running_stats=True) (conv2): Conv2d(512, 512, kernel_size=(3, 3), stride=(1, 1), padding=(1, 1), bias=False) (bn2): BatchNorm2d(512, eps=1e-05, momentum=0.1, affine=True, track_running_stats=True) (conv3): Conv2d(512, 2048, kernel_size=(1, 1), stride=(1, 1), bias=False) (bn3): BatchNorm2d(2048, eps=1e-05, momentum=0.1, affine=True, track_running_stats=True) (relu): ReLU(inplace) ) (2): Bottleneck( (conv1): Conv2d(2048, 512, kernel_size=(1, 1), stride=(1, 1), bias=False) (bn1): BatchNorm2d(512, eps=1e-05, momentum=0.1, affine=True, track_running_stats=True) (conv2): Conv2d(512, 512, kernel_size=(3, 3), stride=(1, 1), padding=(1, 1), bias=False) (bn2): BatchNorm2d(512, eps=1e-05, momentum=0.1, affine=True, track_running_stats=True) (conv3): Conv2d(512, 2048, kernel_size=(1, 1), stride=(1, 1), bias=False) (bn3): BatchNorm2d(2048, eps=1e-05, momentum=0.1, affine=True, track_running_stats=True) (relu): ReLU(inplace) ) ) ) (1): Sequential( (0): AdaptiveConcatPool2d( (ap): AdaptiveAvgPool2d(output_size=1) (mp): AdaptiveMaxPool2d(output_size=1) ) (1): Flatten() (2): BatchNorm1d(4096, eps=1e-05, momentum=0.1, affine=True, track_running_stats=True) (3): Dropout(p=0.25) (4): Linear(in_features=4096, out_features=512, bias=True) (5): ReLU(inplace) (6): BatchNorm1d(512, eps=1e-05, momentum=0.1, affine=True, track_running_stats=True) (7): Dropout(p=0.5) (8): Linear(in_features=512, out_features=3, bias=True) ) ), opt_func=functools.partial(&lt;class &#39;torch.optim.adam.Adam&#39;&gt;, betas=(0.9, 0.99)), loss_func=FlattenedLoss of CrossEntropyLoss(), metrics=[&lt;function error_rate at 0x7f8c29900d90&gt;], true_wd=True, bn_wd=True, wd=0.01, train_bn=True, path=PosixPath(&#39;/home/jupyter/disc_classifier/disc_images&#39;), model_dir=&#39;models&#39;, callback_fns=[functools.partial(&lt;class &#39;fastai.basic_train.Recorder&#39;&gt;, add_time=True)], callbacks=[], layer_groups=[Sequential( (0): Conv2d(3, 64, kernel_size=(7, 7), stride=(2, 2), padding=(3, 3), bias=False) (1): BatchNorm2d(64, eps=1e-05, momentum=0.1, affine=True, track_running_stats=True) (2): ReLU(inplace) (3): MaxPool2d(kernel_size=3, stride=2, padding=1, dilation=1, ceil_mode=False) (4): Conv2d(64, 64, kernel_size=(1, 1), stride=(1, 1), bias=False) (5): BatchNorm2d(64, eps=1e-05, momentum=0.1, affine=True, track_running_stats=True) (6): Conv2d(64, 64, kernel_size=(3, 3), stride=(1, 1), padding=(1, 1), bias=False) (7): BatchNorm2d(64, eps=1e-05, momentum=0.1, affine=True, track_running_stats=True) (8): Conv2d(64, 256, kernel_size=(1, 1), stride=(1, 1), bias=False) (9): BatchNorm2d(256, eps=1e-05, momentum=0.1, affine=True, track_running_stats=True) (10): ReLU(inplace) (11): Conv2d(64, 256, kernel_size=(1, 1), stride=(1, 1), bias=False) (12): BatchNorm2d(256, eps=1e-05, momentum=0.1, affine=True, track_running_stats=True) (13): Conv2d(256, 64, kernel_size=(1, 1), stride=(1, 1), bias=False) (14): BatchNorm2d(64, eps=1e-05, momentum=0.1, affine=True, track_running_stats=True) (15): Conv2d(64, 64, kernel_size=(3, 3), stride=(1, 1), padding=(1, 1), bias=False) (16): BatchNorm2d(64, eps=1e-05, momentum=0.1, affine=True, track_running_stats=True) (17): Conv2d(64, 256, kernel_size=(1, 1), stride=(1, 1), bias=False) (18): BatchNorm2d(256, eps=1e-05, momentum=0.1, affine=True, track_running_stats=True) (19): ReLU(inplace) (20): Conv2d(256, 64, kernel_size=(1, 1), stride=(1, 1), bias=False) (21): BatchNorm2d(64, eps=1e-05, momentum=0.1, affine=True, track_running_stats=True) (22): Conv2d(64, 64, kernel_size=(3, 3), stride=(1, 1), padding=(1, 1), bias=False) (23): BatchNorm2d(64, eps=1e-05, momentum=0.1, affine=True, track_running_stats=True) (24): Conv2d(64, 256, kernel_size=(1, 1), stride=(1, 1), bias=False) (25): BatchNorm2d(256, eps=1e-05, momentum=0.1, affine=True, track_running_stats=True) (26): ReLU(inplace) (27): Conv2d(256, 128, kernel_size=(1, 1), stride=(1, 1), bias=False) (28): BatchNorm2d(128, eps=1e-05, momentum=0.1, affine=True, track_running_stats=True) (29): Conv2d(128, 128, kernel_size=(3, 3), stride=(2, 2), padding=(1, 1), bias=False) (30): BatchNorm2d(128, eps=1e-05, momentum=0.1, affine=True, track_running_stats=True) (31): Conv2d(128, 512, kernel_size=(1, 1), stride=(1, 1), bias=False) (32): BatchNorm2d(512, eps=1e-05, momentum=0.1, affine=True, track_running_stats=True) (33): ReLU(inplace) (34): Conv2d(256, 512, kernel_size=(1, 1), stride=(2, 2), bias=False) (35): BatchNorm2d(512, eps=1e-05, momentum=0.1, affine=True, track_running_stats=True) (36): Conv2d(512, 128, kernel_size=(1, 1), stride=(1, 1), bias=False) (37): BatchNorm2d(128, eps=1e-05, momentum=0.1, affine=True, track_running_stats=True) (38): Conv2d(128, 128, kernel_size=(3, 3), stride=(1, 1), padding=(1, 1), bias=False) (39): BatchNorm2d(128, eps=1e-05, momentum=0.1, affine=True, track_running_stats=True) (40): Conv2d(128, 512, kernel_size=(1, 1), stride=(1, 1), bias=False) (41): BatchNorm2d(512, eps=1e-05, momentum=0.1, affine=True, track_running_stats=True) (42): ReLU(inplace) (43): Conv2d(512, 128, kernel_size=(1, 1), stride=(1, 1), bias=False) (44): BatchNorm2d(128, eps=1e-05, momentum=0.1, affine=True, track_running_stats=True) (45): Conv2d(128, 128, kernel_size=(3, 3), stride=(1, 1), padding=(1, 1), bias=False) (46): BatchNorm2d(128, eps=1e-05, momentum=0.1, affine=True, track_running_stats=True) (47): Conv2d(128, 512, kernel_size=(1, 1), stride=(1, 1), bias=False) (48): BatchNorm2d(512, eps=1e-05, momentum=0.1, affine=True, track_running_stats=True) (49): ReLU(inplace) (50): Conv2d(512, 128, kernel_size=(1, 1), stride=(1, 1), bias=False) (51): BatchNorm2d(128, eps=1e-05, momentum=0.1, affine=True, track_running_stats=True) (52): Conv2d(128, 128, kernel_size=(3, 3), stride=(1, 1), padding=(1, 1), bias=False) (53): BatchNorm2d(128, eps=1e-05, momentum=0.1, affine=True, track_running_stats=True) (54): Conv2d(128, 512, kernel_size=(1, 1), stride=(1, 1), bias=False) (55): BatchNorm2d(512, eps=1e-05, momentum=0.1, affine=True, track_running_stats=True) (56): ReLU(inplace) ), Sequential( (0): Conv2d(512, 256, kernel_size=(1, 1), stride=(1, 1), bias=False) (1): BatchNorm2d(256, eps=1e-05, momentum=0.1, affine=True, track_running_stats=True) (2): Conv2d(256, 256, kernel_size=(3, 3), stride=(2, 2), padding=(1, 1), bias=False) (3): BatchNorm2d(256, eps=1e-05, momentum=0.1, affine=True, track_running_stats=True) (4): Conv2d(256, 1024, kernel_size=(1, 1), stride=(1, 1), bias=False) (5): BatchNorm2d(1024, eps=1e-05, momentum=0.1, affine=True, track_running_stats=True) (6): ReLU(inplace) (7): Conv2d(512, 1024, kernel_size=(1, 1), stride=(2, 2), bias=False) (8): BatchNorm2d(1024, eps=1e-05, momentum=0.1, affine=True, track_running_stats=True) (9): Conv2d(1024, 256, kernel_size=(1, 1), stride=(1, 1), bias=False) (10): BatchNorm2d(256, eps=1e-05, momentum=0.1, affine=True, track_running_stats=True) (11): Conv2d(256, 256, kernel_size=(3, 3), stride=(1, 1), padding=(1, 1), bias=False) (12): BatchNorm2d(256, eps=1e-05, momentum=0.1, affine=True, track_running_stats=True) (13): Conv2d(256, 1024, kernel_size=(1, 1), stride=(1, 1), bias=False) (14): BatchNorm2d(1024, eps=1e-05, momentum=0.1, affine=True, track_running_stats=True) (15): ReLU(inplace) (16): Conv2d(1024, 256, kernel_size=(1, 1), stride=(1, 1), bias=False) (17): BatchNorm2d(256, eps=1e-05, momentum=0.1, affine=True, track_running_stats=True) (18): Conv2d(256, 256, kernel_size=(3, 3), stride=(1, 1), padding=(1, 1), bias=False) (19): BatchNorm2d(256, eps=1e-05, momentum=0.1, affine=True, track_running_stats=True) (20): Conv2d(256, 1024, kernel_size=(1, 1), stride=(1, 1), bias=False) (21): BatchNorm2d(1024, eps=1e-05, momentum=0.1, affine=True, track_running_stats=True) (22): ReLU(inplace) (23): Conv2d(1024, 256, kernel_size=(1, 1), stride=(1, 1), bias=False) (24): BatchNorm2d(256, eps=1e-05, momentum=0.1, affine=True, track_running_stats=True) (25): Conv2d(256, 256, kernel_size=(3, 3), stride=(1, 1), padding=(1, 1), bias=False) (26): BatchNorm2d(256, eps=1e-05, momentum=0.1, affine=True, track_running_stats=True) (27): Conv2d(256, 1024, kernel_size=(1, 1), stride=(1, 1), bias=False) (28): BatchNorm2d(1024, eps=1e-05, momentum=0.1, affine=True, track_running_stats=True) (29): ReLU(inplace) (30): Conv2d(1024, 256, kernel_size=(1, 1), stride=(1, 1), bias=False) (31): BatchNorm2d(256, eps=1e-05, momentum=0.1, affine=True, track_running_stats=True) (32): Conv2d(256, 256, kernel_size=(3, 3), stride=(1, 1), padding=(1, 1), bias=False) (33): BatchNorm2d(256, eps=1e-05, momentum=0.1, affine=True, track_running_stats=True) (34): Conv2d(256, 1024, kernel_size=(1, 1), stride=(1, 1), bias=False) (35): BatchNorm2d(1024, eps=1e-05, momentum=0.1, affine=True, track_running_stats=True) (36): ReLU(inplace) (37): Conv2d(1024, 256, kernel_size=(1, 1), stride=(1, 1), bias=False) (38): BatchNorm2d(256, eps=1e-05, momentum=0.1, affine=True, track_running_stats=True) (39): Conv2d(256, 256, kernel_size=(3, 3), stride=(1, 1), padding=(1, 1), bias=False) (40): BatchNorm2d(256, eps=1e-05, momentum=0.1, affine=True, track_running_stats=True) (41): Conv2d(256, 1024, kernel_size=(1, 1), stride=(1, 1), bias=False) (42): BatchNorm2d(1024, eps=1e-05, momentum=0.1, affine=True, track_running_stats=True) (43): ReLU(inplace) (44): Conv2d(1024, 512, kernel_size=(1, 1), stride=(1, 1), bias=False) (45): BatchNorm2d(512, eps=1e-05, momentum=0.1, affine=True, track_running_stats=True) (46): Conv2d(512, 512, kernel_size=(3, 3), stride=(2, 2), padding=(1, 1), bias=False) (47): BatchNorm2d(512, eps=1e-05, momentum=0.1, affine=True, track_running_stats=True) (48): Conv2d(512, 2048, kernel_size=(1, 1), stride=(1, 1), bias=False) (49): BatchNorm2d(2048, eps=1e-05, momentum=0.1, affine=True, track_running_stats=True) (50): ReLU(inplace) (51): Conv2d(1024, 2048, kernel_size=(1, 1), stride=(2, 2), bias=False) (52): BatchNorm2d(2048, eps=1e-05, momentum=0.1, affine=True, track_running_stats=True) (53): Conv2d(2048, 512, kernel_size=(1, 1), stride=(1, 1), bias=False) (54): BatchNorm2d(512, eps=1e-05, momentum=0.1, affine=True, track_running_stats=True) (55): Conv2d(512, 512, kernel_size=(3, 3), stride=(1, 1), padding=(1, 1), bias=False) (56): BatchNorm2d(512, eps=1e-05, momentum=0.1, affine=True, track_running_stats=True) (57): Conv2d(512, 2048, kernel_size=(1, 1), stride=(1, 1), bias=False) (58): BatchNorm2d(2048, eps=1e-05, momentum=0.1, affine=True, track_running_stats=True) (59): ReLU(inplace) (60): Conv2d(2048, 512, kernel_size=(1, 1), stride=(1, 1), bias=False) (61): BatchNorm2d(512, eps=1e-05, momentum=0.1, affine=True, track_running_stats=True) (62): Conv2d(512, 512, kernel_size=(3, 3), stride=(1, 1), padding=(1, 1), bias=False) (63): BatchNorm2d(512, eps=1e-05, momentum=0.1, affine=True, track_running_stats=True) (64): Conv2d(512, 2048, kernel_size=(1, 1), stride=(1, 1), bias=False) (65): BatchNorm2d(2048, eps=1e-05, momentum=0.1, affine=True, track_running_stats=True) (66): ReLU(inplace) ), Sequential( (0): AdaptiveAvgPool2d(output_size=1) (1): AdaptiveMaxPool2d(output_size=1) (2): Flatten() (3): BatchNorm1d(4096, eps=1e-05, momentum=0.1, affine=True, track_running_stats=True) (4): Dropout(p=0.25) (5): Linear(in_features=4096, out_features=512, bias=True) (6): ReLU(inplace) (7): BatchNorm1d(512, eps=1e-05, momentum=0.1, affine=True, track_running_stats=True) (8): Dropout(p=0.5) (9): Linear(in_features=512, out_features=3, bias=True) )], add_time=True) . path = Path(&#39;/home/jupyter/disc_classifier/&#39;) leopard = open_image(path/&#39;leopard.jpeg&#39;) . leopard = open_image(path/&#39;leopard.jpeg&#39;) . leopard . pred_class,pred_idx,outputs = learn.predict(leopard) . pred_class . Category Innova Leopard . outputs . tensor([1.3064e-05, 7.1869e-04, 9.9927e-01]) . data.classes . [
…
